ADL_Model/ADL_Model.tflite (tflite, 72968 bytes, 6 tensors)

sequential/dense/BiasAdd/ReadVariableOp/resource f4 [128]
000000 16 41 1c bf 53 20 d0 bf ab b4 12 bd 1c 15 29 bc
       -0.61036813 -1.6259865 -0.03581683 -0.010319974
000010 40 23 88 bc 50 da 92 bf fe 9e 4b be 37 3f df bd
       -0.016618371 -1.1472874 -0.1988487 -0.10900729
000020 c3 09 a7 be d5 f5 b9 bb f8 b7 0e be a8 09 a6 bc
       -0.32624635 -0.0056750574 -0.13937366 -0.020268276
000030 de 03 4c bc 03 82 34 bd 36 b6 4c bc c9 d8 ac bc
       -0.012452094 -0.0440693 -0.012494614 -0.021099465
000040 a4 7f e2 bb fd 6f 29 bc f9 63 89 bc ff 6f 81 be
       -0.0069121886 -0.0103416415 -0.016771303 -0.2528076
000050 fb 9a 0f bc 93 40 68 bc c3 df e3 bc fe 4c 1c be
       -0.008764978 -0.014175552 -0.027816659 -0.15263745
000060 7f 7b 92 bd 6d 60 e8 bc f0 88 02 bd 0e 82 6f bf
       -0.07152461 -0.028366292 -0.031868875 -0.9355782
000070 21 90 f9 bd 39 1c 04 be 49 97 08 bc 97 1e 22 be
       -0.121856935 -0.12901391 -0.00833685 -0.15831982
000080 b0 a8 56 be 0c 75 ae be 6d 9f bc bf e0 3a e7 bc
       -0.20962787 -0.34073675 -1.4736153 -0.028226316
000090 ae 6a bd bc 16 03 3f bf 82 82 a7 bf ff 88 a0 be
       -0.023122158 -0.74614084 -1.3086703 -0.3135452
0000a0 60 c1 39 be 48 60 67 bc ce a5 ec bc 86 3a b9 bc
       -0.18140173 -0.014122076 -0.028887656 -0.022610914
0000b0 db 3e 83 bf a9 99 c1 be a2 81 33 be fc f7 83 bd
       -1.0253557 -0.37812546 -0.1752992 -0.06443784
0000c0 2a 05 af bc 68 b2 47 bc 1e 49 06 bc f7 09 62 bf
       -0.021364767 -0.012188531 -0.008196143 -0.88296455
0000d0 53 55 be bc 56 23 a9 3a b3 c0 47 bc 9a 5b 89 bc
       -0.023234045 0.0012904208 -0.012191939 -0.016767312
0000e0 b4 1e 40 bc 61 11 9f bc cf 33 1e bc 8b 26 a2 bc
       -0.01172607 -0.019417467 -0.009655907 -0.01979377
0000f0 e6 a4 91 bc 37 65 9a 3b d0 98 92 be 89 bc 0f bd
       -0.017778825 0.004711773 -0.28632212 -0.03509191
000100 23 9d 93 bc 64 34 e6 bc 3c 5a 1d be 31 41 91 bf
       -0.018019265 -0.028101154 -0.15366453 -1.134802
000110 bf bc c4 bc 50 5e 09 bd d3 1d 7c be 81 be ed bc
       -0.024015782 -0.03353721 -0.24620752 -0.029021503
000120 6c d9 82 bd 4d b9 bf bc 19 62 95 bf 2c 13 88 be
       -0.06389126 -0.023403788 -1.1670562 -0.26577127
000130 a4 2a b0 bf 8f 11 74 bd 7d 52 bc bd 2a 49 59 bc
       -1.3763013 -0.059587058 -0.09195421 -0.013262073
000140 d6 7d c6 bd b4 85 d9 bd fa 58 b3 be 7f f5 5b be
       -0.0969197 -0.10621205 -0.3502882 -0.21480368
000150 c5 53 1c bd 80 3e c2 bb 66 2d cb bd d0 bc ca bd
       -0.038165826 -0.0059278607 -0.099207684 -0.098992944
000160 db 7c 8c bc 2e 0b 3d be de 2b 43 bc d6 20 9d bf
       -0.01714938 -0.18461296 -0.011912314 -1.2275646
000170 ce 00 0d bf dc 5d 8f be d7 62 07 be 73 6e 96 bb
       -0.5507935 -0.28001297 -0.13221298 -0.0045908033
000180 6e bb 93 bf ea 9d ce ba 3e c1 9d be 21 ab b2 bf
       -1.1541574 -0.0015763615 -0.30811495 -1.3958474
000190 88 51 0c bd 4b da 5e bd 33 b3 fa bd 3f 06 1a be
       -0.03425744 -0.0544074 -0.12241211 -0.15041445
0001a0 91 6e 11 bd 93 b4 7b bf 55 e8 0c be 0c 21 e4 bc
       -0.035505835 -0.9832241 -0.13760503 -0.02784779
0001b0 ca f7 03 bb ff c0 19 bd 90 df aa bd bb af e6 bd
       -0.0020136707 -0.03753757 -0.083434224 -0.11263987
0001c0 ff b7 89 bd ea 8b 40 bc 8d eb 5c be 97 a9 b9 bc
       -0.067245476 -0.011752108 -0.2157423 -0.022663875
0001d0 66 d8 c0 be 55 99 a3 bf a7 f9 64 bc d6 6a 9a bb
       -0.376651 -1.2781168 -0.013975537 -0.004712443
0001e0 74 c3 f2 bc 23 ba 8c bc 12 d7 c2 bf d0 d6 4c be
       -0.029634215 -0.0171786 -1.5221884 -0.2000382
0001f0 7f ea 8e be 62 42 34 bd ac 78 d0 bf 6b f9 84 be
       -0.2791328 -0.04400862 -1.6286826 -0.2597154

sequential/dense_1/BiasAdd/ReadVariableOp/resource f4 [128]
000000 10 30 f0 bb 28 f2 85 3d 26 27 bb 3e 19 2d b1 3f
       -0.0073299482 0.06540328 0.36553305 1.3841888
000010 10 41 40 3f c4 a7 9e be 08 4c 56 be da 82 d9 3c
       0.7509928 -0.3098737 -0.20927441 0.026551653
000020 9c 08 43 bf 62 ac 6f 3f fe 5a 69 bf a4 b5 2e 3f
       -0.7618501 0.9362241 -0.9115447 0.6824591
000030 49 17 50 40 10 df eb 3f 2c 92 e7 3e fb 31 14 be
       3.2514212 1.8427448 0.45228708 -0.14472191
000040 b5 c4 60 3d 4e 57 51 40 7e 67 db 3c 97 07 5f be
       0.054875094 3.2709537 0.026782747 -0.21780239
000050 b6 62 de 3e 87 c6 b0 bd 05 73 cd bd 81 70 2a bf
       0.43434685 -0.08631616 -0.10031704 -0.6657792
000060 ce 9d 77 3f df d6 a8 bb 62 9a 23 bc 99 12 1c 3f
       0.96725166 -0.0051525678 -0.009985538 0.6096588
000070 1d b8 2c bf 8d 69 28 bc 04 c0 37 bd 3f bc 31 3d
       -0.67468435 -0.0102790715 -0.044860855 0.043392416
000080 6d fa 80 be 71 b6 87 3e 6b d9 bd bf bc d2 d1 3c
       -0.2519106 0.2650638 -1.4831976 0.025613181
000090 db 84 a3 3e 03 19 cc 3e 6a f0 b0 bc 39 44 bb be
       0.31937298 0.39862832 -0.021599013 -0.36575487
0000a0 dd ca 3b be a5 e8 d0 3c d3 5e db bd 1f 71 25 be
       -0.18339105 0.025501559 -0.10711446 -0.16156434
0000b0 66 c8 a6 bf 8a da d7 3e 44 21 95 bf ef 97 2e 3d
       -1.3029907 0.4215892 -1.1650777 0.042625364
0000c0 08 e0 93 3e 16 bc 91 bf f3 53 0c bc 91 29 1e 3d
       0.2888186 -1.1385524 -0.008564937 0.03861386
0000d0 23 bb 2f bf 7c 22 80 bd a1 1f e7 bf ed 3d 41 bd
       -0.6864492 -0.062565774 -1.8056527 -0.047178198
0000e0 dd 6f 76 be 23 7d 82 3e 75 e9 64 3e 9e 1d cf 3d
       -0.2406611 0.25486097 0.22354682 0.10113071
0000f0 c7 63 19 bd 7d 98 e2 bd 44 a4 97 3f a8 83 56 3e
       -0.03744867 -0.11064241 1.1847005 0.2094866
000100 a4 1e b9 3d 9b 11 8b bc 47 59 18 bb 39 17 62 be
       0.09039047 -0.016976168 -0.0023246573 -0.22079171
000110 11 4b 84 3e 12 18 a1 bf d1 d1 b2 3e 6e 24 d3 bd
       0.2583852 -1.2585471 0.34925702 -0.10309683
000120 83 ac 04 ba 19 07 02 3e 54 54 bc bd 63 f5 82 be
       -0.00050611066 0.1269802 -0.09195772 -0.2557784
000130 61 85 bb 3d 39 bc a2 bc 00 0b 5e bb 34 30 21 bd
       0.091562994 -0.019865142 -0.0033881068 -0.03935261
000140 bf 63 12 be 44 59 8a bc 9d 91 e5 3e fd b1 df 3e
       -0.14295863 -0.016888268 0.44837657 0.43690482
000150 20 b7 9c bd d8 70 84 bd 5c 20 d8 be 64 81 3d bf
       -0.07652116 -0.06466836 -0.42212188 -0.7402556
000160 29 6e 23 be 62 1a 2c be bf 9f a1 bf 72 da e3 3e
       -0.15959992 -0.16806939 -1.2626876 0.44502598
000170 f3 fd 33 bc 81 7b 68 bb dc bd 4d bf 8f c7 a6 3f
       -0.010985839 -0.0035474005 -0.8036783 1.302965
000180 1c 2a 6c 3c 96 cf 54 ba 2a 0a bb 3e 9b c7 5b be
       0.0144143365 -0.0008118091 0.36531192 -0.21462862
000190 c8 83 65 bc 26 a0 a0 3f 45 9a 17 bf 3b 52 8c 3e
       -0.01400847 1.2548873 -0.5921977 0.27406487
0001a0 a8 d0 77 bc 03 1a 5c 3e e5 83 4a 3f 47 81 c5 3c
       -0.015125431 0.21494298 0.79107505 0.024109496
0001b0 5d cc 1e be d1 2c 59 bf 83 b4 d5 3c aa f0 c0 3f
       -0.15507646 -0.8483401 0.026087051 1.5073445
0001c0 1a 08 61 be 40 c0 23 bd 26 bb 83 bd 6a 5a 1b bc
       -0.21975747 -0.039978266 -0.0643218 -0.009482006
0001d0 eb f2 82 3e e9 92 01 3f a7 aa 88 be 39 0d d1 3e
       0.25575957 0.5061479 -0.26692697 0.408304
0001e0 29 9e 36 bf a4 91 a7 be 71 ca 89 3c 97 a0 1c 3f
       -0.71335083 -0.32728302 0.016820164 0.6118254
0001f0 50 af 1d 3d 04 aa f4 bd 5c 0a 58 be 9e 80 1a 3e
       0.03849727 -0.119464904 -0.21097702 0.15088126

sequential/dense_2/BiasAdd/ReadVariableOp/resource f4 [6]
000000 76 ec 11 3d c3 05 02 bf 84 18 88 bd c8 10 52 bd
       0.035625897 -0.5079004 -0.06645301 -0.051285535
000010 20 40 51 3c 3b 4c 0f 3f
       0.012771636 0.55975693

sequential/dense/MatMul f4 [128, 3]
000000 2d 77 42 3d b6 3e 56 3e ad d9 d7 3e 95 55 ad 3d
       0.047476936 0.2092236 0.4215826 0.08463589
000010 ad 0f 2e be 03 de 2a 3e a3 89 94 be 7b d0 1c bd
       -0.16998167 0.16686253 -0.29011258 -0.03828476
000020 46 da 8c 3e cd 43 06 bd c1 5e b1 3e 33 a4 8f bc
       0.2751028 -0.032779504 0.34642604 -0.017534351
000030 f1 72 e0 be 71 fb 7b bd ae 21 02 3f f6 47 21 3e
       -0.43837693 -0.06151909 0.5083264 0.15750107
000040 0a 6b 2d be f1 6d 35 3d 20 a7 b1 be c8 c6 f2 3a
       -0.16935363 0.0442943 -0.3469782 0.0018522376
000050 88 58 fc 3d 00 5d f9 3d 4f 15 51 be 82 5a 52 be
       0.123215735 0.121759415 -0.20418285 -0.20542338
000060 a0 50 4a be 93 ee ca 3d d7 c8 db 3e 78 4d d9 be
       -0.19757318 0.09908786 0.42926666 -0.42441916
000070 0a e7 2f 3d 4e d6 89 be 10 2a 89 be a6 b3 49 be
       0.042944945 -0.26921314 -0.26789904 -0.19697437
000080 44 9a 2f be 07 1d 02 bf 4f 3e 06 3d 0c bf a0 be
       -0.17148691 -0.5082554 0.032774266 -0.31395757
000090 f0 79 98 3e 29 b6 12 3d b1 8c 18 bf bb 37 84 be
       0.2978053 0.035818253 -0.5958968 -0.2582377
0000a0 db e5 d9 3c 03 fa bb bd e9 70 08 bd e2 d9 8b 3e
       0.026598861 -0.09178545 -0.033310805 0.2731467
0000b0 28 50 98 bd 87 c7 57 be 58 d2 b0 bc e3 c4 dd 3e
       -0.074371636 -0.21072207 -0.021584675 0.43314275
0000c0 a5 4a fd 3b 4f 2a 89 be 62 d2 5e bd 94 b3 ce be
       0.0077298456 -0.2679009 -0.054399855 -0.40371382
0000d0 05 72 d8 bc c0 6e 84 be fe 14 80 3e 70 ea d8 3a
       -0.026421556 -0.25865746 0.25016016 0.001654936
0000e0 b2 6e 12 bf 4d fc 9d bc c8 91 c9 3d 5a 2c cf be
       -0.5720016 -0.019285345 0.09842259 -0.40463525
0000f0 b5 a2 30 3e be f6 d5 3d 34 1f 1a 3f 01 2a b9 bc
       0.17249568 0.10447453 0.6020386 -0.022603037
000100 b8 60 0a 3e 04 29 15 3f 89 25 d3 3e 30 81 22 bd
       0.13513458 0.5826571 0.41239575 -0.039673984
000110 45 2e 09 3e 43 91 5c 3e 92 f3 1f be e8 0f 87 3d
       0.13396557 0.21539788 -0.15620258 0.06594831
000120 be 9e fc 3d 49 4a 43 3e 1a d6 ff bd 22 db 80 3e
       0.12334965 0.19071306 -0.124920085 0.25167185
000130 fe 3b 53 3d c6 f7 ce be 49 16 83 be 79 a5 be bd
       0.051570885 -0.4042341 -0.2560294 -0.09308905
000140 28 e0 0b 3f 2a ff e4 3c 9a 26 58 be 90 41 8f 3b
       0.5463891 0.027953703 -0.21108475 0.0043718293
000150 8a 9b 05 3d 94 da 47 3c 68 02 8f be e3 00 8c 3e
       0.032619037 0.012198109 -0.27931523 0.27344427
000160 b6 9a 80 3d 1e 87 ff 3d 8d 82 e6 be e2 83 8a bd
       0.06279509 0.124769434 -0.45021477 -0.06763436
000170 13 46 a6 3e 0f 3f 99 3d 4b 42 d5 bc 36 18 ae be
       0.32475337 0.074827306 -0.026032588 -0.34002846
000180 12 dd 3c be 86 dd 26 be f6 01 41 be b1 f8 5e 3e
       -0.18443707 -0.16295442 -0.18848404 0.21774556
000190 2f 98 f5 bd 5d c6 bb bd d1 ac 2b 3e 2b cd d2 bd
       -0.11991917 -0.09168694 0.16765143 -0.10293039
0001a0 b1 79 a0 be f2 ba 0f 3d 68 ed 09 bf ec 64 43 bd
       -0.31342843 0.035090394 -0.5387788 -0.04770367
0001b0 b4 80 f4 3e 17 2f 46 bc 5b 13 f7 be 94 75 77 be
       0.47754443 -0.012096188 -0.48256955 -0.24165946
0001c0 2d a7 65 3d 08 5b 29 3e 73 cf 55 3e 1a b1 09 be
       0.056067634 0.16538632 0.20879917 -0.13446465
0001d0 ef b7 bb 3d f6 ed 98 3d 0f c1 1f 3e d2 cc f2 3e
       0.09165942 0.074672624 0.1560099 0.4742189
0001e0 07 26 80 3e 5d 00 34 be db 88 58 3c 59 fc a1 bc
       0.25029013 -0.17578264 0.013216223 -0.019773649
0001f0 5c 6e 0a 3f 49 79 3b 3d 77 44 f7 3e ac 84 03 be
       0.54074645 0.045769963 0.48294422 -0.12843579
000200 88 77 59 3e d1 a8 6f be 9e cc 9d 3c 37 97 db 3e
       0.21237004 -0.23404242 0.019262608 0.42888805
000210 0b 2f 5d bd c6 ec 22 3e e4 ea 1f be 6c 62 48 be
       -0.05399994 0.15910634 -0.15616947 -0.19568795
000220 31 f3 2d be dc 0b 26 be da 30 6a 3e c3 75 ee bd
       -0.16987301 -0.16215461 0.22870198 -0.11643555
000230 12 a7 bc 3d b5 c1 92 3e f9 7f 81 3d bf aa 3e 3e
       0.09211554 0.28663412 0.06323237 0.18619822
000240 9b 1b f6 3e 19 65 5f 3d b7 de ec be 43 0c 01 3f
       0.48067936 0.054539774 -0.46263668 0.50409335
000250 13 e6 29 bd 08 eb 74 3e 0d 41 a9 3e 11 e9 a5 3c
       -0.04147918 0.23917782 0.33057442 0.020252736
000260 b1 0e d9 be 0e 12 88 bd 93 c9 36 be ec 27 67 3c
       -0.4239402 -0.06644069 -0.17850332 0.014108639
000270 f2 5c b5 be 0e 69 75 3d cc 13 44 3e 31 3d ee 3b
       -0.35422474 0.05991464 0.19148177 0.007270478
000280 94 c4 be 3e 08 56 3c 3d b1 74 a7 bc e8 8f c6 3e
       0.37259352 0.045980483 -0.020441385 0.38781667
000290 d8 4c 62 3d 2a 96 97 be 6d 21 9d bd 21 8e 2b 3f
       0.055249065 -0.29606754 -0.07672391 0.67013747
0002a0 22 49 3d 3d ad 44 e3 be 07 ae 8a 3b 3e 3d 63 3e
       0.046212323 -0.44388333 0.0042321715 0.22191331
0002b0 d3 7e d5 3d 43 3c af be 85 88 e6 be 21 2e 82 bd
       0.104245804 -0.34225664 -0.4502603 -0.06356455
0002c0 b3 a0 8d be 62 ff 08 3c 96 c6 b3 be 49 96 3e bd
       -0.27661666 0.008361669 -0.35112447 -0.04653004
0002d0 4c 52 08 3d d9 22 d2 3e 87 7b 03 bd b7 79 3b bd
       0.03328161 0.41042212 -0.032100227 -0.045770373
0002e0 5e eb bd 3e 11 1b 5b 3d 8f 62 16 be 3b 04 3d be
       0.37093633 0.05349261 -0.14686035 -0.18458645
0002f0 da 53 b7 bd 88 4b 36 bc 84 2f 93 be fa 3e 39 bd
       -0.0895154 -0.0111264065 -0.2874719 -0.045226075
000300 98 84 4d 3e b5 52 b7 3d 8c 92 1b bf 52 97 df bb
       0.20070112 0.08951322 -0.6077049 -0.0068234587
000310 2d 68 aa be 90 32 ea bb 08 ae e0 3d fa 3c 6e 3e
       -0.33282605 -0.007147141 0.10970694 0.23265448
000320 82 08 fa bd df 16 3b be 74 1d 76 bd f2 1a 04 be
       -0.12208654 -0.18270443 -0.060086682 -0.12900904
000330 db 0f 73 be 92 e2 22 bd bf 0d 18 3f 7a e4 53 b9
       -0.23736517 -0.039766856 0.59395975 -0.00020207642
000340 76 cd 8a 3e 37 a1 e0 3c 3d b7 6b 3e ef 54 83 bd
       0.2710988 0.027420623 0.23019119 -0.06412684
000350 27 52 81 bd 1d 82 cc be b7 c6 9e bd 4d b2 1e 3f
       -0.063144974 -0.3994302 -0.077527456 0.61990815
000360 50 ed c2 3d d4 f0 16 3d 4b ea aa 3e 1e 27 74 3e
       0.0951792 0.036850765 0.33381876 0.23843047
000370 2c c4 9b 3d a6 24 cb be ff 49 3a be 42 9a ed bd
       0.07605776 -0.39676398 -0.1819229 -0.11601688
000380 54 f1 8e bd f5 e7 8b be 9c ad 90 3d 42 be 0e 3e
       -0.069796234 -0.27325407 0.07064363 0.13939765
000390 20 fb 9a bd 64 e5 2a be b2 60 07 3e 73 99 48 be
       -0.075674295 -0.16689068 0.1322048 -0.19589786
0003a0 37 1b 07 be 65 be 15 be d6 e9 87 be 89 0c 39 3d
       -0.13193975 -0.14623411 -0.2654559 0.04517797
0003b0 70 a0 1c be c5 70 e2 be 30 30 fa bc 9a fd b1 3c
       -0.15295577 -0.4422666 -0.030540556 0.021727372
0003c0 99 4c b3 be e3 dc 27 3d 5e 89 5f be bd fa 3c 3d
       -0.35019377 0.04098214 -0.21829745 0.04613756
0003d0 de b4 3c be e4 73 44 be 9f 7a 2f be e1 23 2f 3d
       -0.1842837 -0.19184834 -0.1713662 0.042758826
0003e0 17 ac c4 3d 0f f9 13 bd f3 9d 42 be 07 43 03 3e
       0.09603136 -0.036126193 -0.19005565 0.12818538
0003f0 ae 03 38 be 29 39 6e bd 11 fa b1 3e e5 3d cd be
       -0.17970154 -0.05815998 0.34761098 -0.40086284

sequential/dense_1/MatMul f4 [128, 128]
000000 d8 c7 33 be 79 93 af 3d d5 0f 4c bf 9f 6c f4 be
       -0.17556703 0.0857305 -0.7971166 -0.4773912
000010 45 d9 b2 be b3 50 22 3e c3 61 05 be 74 71 d8 be
       -0.34931388 0.15851097 -0.13025574 -0.42274058
000020 47 45 c0 be b1 7c 5c be 7a 7c 8a be 60 34 b4 be
       -0.37552854 -0.21531941 -0.27048093 -0.3519621
000030 93 9e e0 be 0a e0 d3 be 23 d4 73 bd 96 7f 85 be
       -0.43870983 -0.41381866 -0.05952848 -0.26073903
000040 72 a0 4a be e6 f9 e3 bd d3 4e 23 bf 3b 0b 82 be
       -0.19787768 -0.11131649 -0.6379215 -0.25399193
000050 f1 0e c1 3c 02 63 a1 be 56 63 43 bb 35 0a 7f be
       0.023566695 -0.3152085 -0.0029813848 -0.24906237
000060 d9 42 d5 be e9 21 36 bf 08 57 c0 be ad 7e 87 bd
       -0.41652563 -0.7114549 -0.375664 -0.06615958
000070 76 6c 8f bd ff 4b 03 be ee 06 8a be 5c e2 19 be
       -0.07003109 -0.12821959 -0.26958412 -0.15027755
000080 c0 1d b7 be 45 1d 85 be db 7f c4 3e cd 92 58 3c
       -0.35764885 -0.25998893 0.38378796 0.013218594
000090 c2 f0 55 bf 4d af b4 bd ea d1 13 bd 23 4f da bd
       -0.8357049 -0.088224985 -0.03608886 -0.106596254
0000a0 d7 da 75 be f5 14 b8 be 41 ed 2e be 6c fa bb be
       -0.24009262 -0.3595349 -0.17082693 -0.36714494
0000b0 82 5f 8b be 68 d9 de bd 0e e9 d2 be eb 8e 84 be
       -0.27221304 -0.10881311 -0.41193432 -0.25890288
0000c0 4c f5 17 bf 86 95 bf bd 9e fe eb be fb 70 df bd
       -0.5935867 -0.09354691 -0.46092695 -0.10910221
0000d0 3f 70 60 be 01 0a 00 3c 1d 87 bc be 8e 95 97 be
       -0.21917818 0.007814885 -0.36821833 -0.2960629
0000e0 45 9e 11 be c0 2a 3f bf f9 e2 60 be 90 9e e6 be
       -0.14220531 -0.74674606 -0.21961583 -0.4504285
0000f0 dc d8 e6 be 07 81 60 be a2 d8 a2 be 34 7b 8e be
       -0.45087326 -0.2192422 -0.31805903 -0.27828372
000100 56 2c d5 be 09 67 2d be 50 82 11 3d f1 ea 8f 3c
       -0.41635388 -0.16933836 0.035524666 0.017568083
000110 fc 04 63 be 3b 45 19 be 59 1e 54 be 42 d2 be be
       -0.2216987 -0.14967816 -0.20714702 -0.3726979
000120 f7 c9 6d be af 26 f7 be af bb c3 3d a1 09 e2 3d
       -0.23221575 -0.482717 0.09557282 0.11036993
000130 e7 e2 a4 3a c4 31 be bc 5c cc 54 be 56 a3 f4 be
       0.0012579829 -0.02321709 -0.20781082 -0.47780865
000140 01 35 6f bd 50 ec 32 be 91 b9 c5 3b ec 99 8e bd
       -0.058400158 -0.17472959 0.006034084 -0.06962952
000150 0d 34 06 bf 7f 35 88 be 03 2e f3 bd b0 98 02 bd
       -0.52423173 -0.26603314 -0.118740104 -0.031883895
000160 f4 00 1b be 09 e7 a7 be ca c7 26 bf 5f 89 c5 3d
       -0.15137082 -0.32793453 -0.65148604 0.09645342
000170 c7 2f e7 be a4 8f 56 be ca 95 90 bd 80 24 35 3d
       -0.4515364 -0.20953232 -0.0705982 0.044224262
000180 0c fb 87 bd 3d 92 80 be eb 51 2c 3d 9c 5e f2 bd
       -0.0663968 -0.2511157 0.04207031 -0.118344516
000190 92 03 dc bd e8 b6 5c bd fc de 27 bd 79 0c 8f be
       -0.107428685 -0.05388537 -0.04098414 -0.27939203
0001a0 c6 80 c8 be 12 f7 bd bc 01 6e ea be fc 21 95 be
       -0.39160746 -0.023189101 -0.4578705 -0.2912749
0001b0 f2 f9 e8 be 12 99 fa bd 0d 64 d5 3b 5b 1f 46 bd
       -0.45503193 -0.12236227 0.006512171 -0.048369747
0001c0 62 37 05 bf f4 c7 38 be a0 48 07 bf 96 21 54 be
       -0.5203763 -0.18045026 -0.5284519 -0.20715937
0001d0 f8 ff f3 bc bb ec 4d 3d 3f 19 46 bf 54 b8 ba bd
       -0.029785141 0.050274592 -0.7738227 -0.09117189
0001e0 c7 4f 33 bf 1f 9f 07 bf 9f db 5d bc 15 70 ae be
       -0.70043606 -0.52977175 -0.013541131 -0.34069887
0001f0 6b 63 54 be 75 eb d4 be e5 9f 84 3e 3f 81 cd be
       -0.2074105 -0.4158589 0.2590324 -0.4013767
000200 9f cc 17 3e 89 9e 4e be 48 c2 88 3d 2e c1 b6 3d
       0.1482415 -0.20177664 0.06677681 0.08923565
000210 90 2e f3 3c 91 64 91 3d 38 c5 d1 3d cc 16 fe 3d
       0.029685289 0.0709926 0.102426946 0.12406692
000220 92 dc 03 3e 07 01 f7 3d 9b 17 81 3e 5f 1d c8 3d
       0.1287711 0.12060743 0.25213322 0.09771227
000230 c8 bc 81 3d 8f 80 49 3e 4b 7c bb 3d 06 84 bf 3c
       0.06334835 0.19677947 0.091545664 0.023378383
000240 e3 a8 e6 3d 57 32 f7 3d 93 9e a8 3c 01 88 f0 3d
       0.11262681 0.120701484 0.020583427 0.11744691
000250 2a c1 d1 3d 65 7d bc 3d ef 48 27 3d 61 b5 53 3e
       0.10241921 0.092036046 0.04084104 0.2067466
000260 cb 7d f6 3d 5a 9f 52 3d 38 2a 71 3d ea 9f d1 3e
       0.12035712 0.0514215 0.058878154 0.40942317
000270 18 f7 57 3e 67 8b 7a 3e 61 17 9a 3c 6b 82 f6 3d
       0.21090353 0.2446724 0.018809976 0.12036594
000280 88 38 34 3e 30 3f a2 3e 2e 93 2e bd 52 0a d6 3b
       0.1759969 0.31688833 -0.04262083 0.006531992
000290 52 47 0c 3d b3 e7 1e 3e a3 a9 90 bd 07 b8 f3 3d
       0.034247704 0.15518074 -0.07063606 0.11900335
0002a0 7e c6 9f 3e e2 64 96 3d d1 92 4a 3e 8d 57 97 3d
       0.31206125 0.073434606 0.19782569 0.07389746
0002b0 55 b3 10 3d 97 61 4f 3e 47 19 8e 3e 77 8c 02 3e
       0.035327274 0.20252071 0.2775366 0.12748896
0002c0 67 9a 76 3d fc 26 f1 3d a8 0f 30 3d 18 59 da 3e
       0.060205843 0.11775014 0.04298368 0.42646098
0002d0 2f e9 a7 3d e2 69 1b 3d da 33 f9 3c 21 65 4b 3d
       0.08198773 0.037942775 0.030420233 0.04965699
0002e0 c6 dd e1 3d 98 65 57 3d 0d 19 87 3d c5 1f 8e 3d
       0.11028628 0.05258712 0.06596575 0.06939653
0002f0 a5 32 6d 3b 98 ee 45 3d 6f 05 28 3e 58 78 27 3e
       0.0036193517 0.048323244 0.16408323 0.16354501
000300 ad 50 2b ba a9 d0 ed 3d cb 84 d9 3d 4b b7 42 3e
       -0.0006535154 0.116120644 0.106210314 0.19015233
000310 a3 f2 3c 3d c5 19 1d 3d bb a6 8e 3e d4 41 19 3d
       0.046129834 0.038354654 0.2786158 0.037416294
000320 c4 36 07 3e f5 ea a1 3d c3 5b 7c 3e 16 a6 3f 3e
       0.13204485 0.079061426 0.2464438 0.187157
000330 9f 5a 24 3d ef 0f 48 3e 41 b9 5a 3e 1b f1 91 3d
       0.040125486 0.19537328 0.21359731 0.07126065
000340 61 ab 0c 3e fa 1c 8d 3e 4b 84 20 3e 3f 08 2e 3e
       0.13737251 0.2756117 0.15675466 0.16995333
000350 e2 93 f6 3c ed ce 03 3c 47 3d 24 3e 1a 5b 6e 3e
       0.030099813 0.00804494 0.16039 0.2327694
000360 43 e4 03 3d 25 e8 b2 3d 86 ff 37 3d 85 59 8d be
       0.03220011 0.08735684 0.04492142 -0.2760736
000370 ea 57 1a 3e c0 57 81 3e 3a 17 6c 3e b4 ce 00 3d
       0.15072599 0.2526226 0.23055735 0.031447127
000380 db 4a 0f 3c 3a bf 6a 3c 4f 98 23 3e 2f 66 00 3e
       0.008745874 0.0143278185 0.1597607 0.1253898
000390 73 af 1f 3e 36 e6 8f 3d 6e 15 2a 3e c3 8e 7d 3e
       0.15594272 0.07026331 0.16609737 0.2476149
0003a0 d8 ed 57 3e 35 1a 6c 3e 54 20 34 3e 6a 7b 80 3d
       0.21086824 0.23056872 0.17590457 0.06273539
0003b0 f2 0d 20 3e f5 c9 26 3d 28 9b 5e 3d 42 81 b0 3e
       0.1563032 0.040719945 0.054347187 0.34473616
0003c0 7e 5d f1 3d 18 e6 b1 3d 92 dd ee 3d 0a 21 87 3d
       0.1178541 0.08686465 0.11663355 0.065980986
0003d0 0d 42 04 3e 1a 46 5a be d6 c4 97 3d 52 b9 fe 3d
       0.12915821 -0.21315804 0.0741059 0.12437691
0003e0 a9 75 2d bc ca dd 41 3e 81 be d5 bd 57 e0 af 3e
       -0.010587134 0.18932262 -0.10436726 0.34350845
0003f0 10 9c 76 3d f0 53 ba 3d f1 43 d5 be b3 a9 6e 3e
       0.060207427 0.09098041 -0.41653398 0.23306923

sequential/dense_2/MatMul f4 [6, 128]
000000 43 f4 d2 be 62 d8 9b bc 3b dd 7c be 6c 47 8b be
       -0.41201982 -0.019024078 -0.24693768 -0.27202928
000010 16 19 12 bf 16 91 ac bc cb 84 08 be 89 d2 57 bc
       -0.5706953 -0.021065276 -0.13331906 -0.013172754
000020 51 9f 96 be 8d 5c f9 be 36 3e 86 bd e0 09 85 bf
       -0.29418424 -0.48703423 -0.065548345 -1.0393639
000030 1c a2 aa 3d 4c 4c b6 bd 29 9f 23 be 01 23 93 be
       0.08331701 -0.08901271 -0.15978684 -0.28737643
000040 14 e2 4a be 73 6c 46 3e 2a e6 23 bc 7e fc ba 3d
       -0.19812804 0.19377308 -0.010003606 0.0913019
000050 de 71 63 be 81 6d c3 bd 8f 01 44 3d f6 5d 9d be
       -0.22211406 -0.095423706 0.04785305 -0.3073575
000060 50 0e a7 be 48 a7 ba 3b a3 2c 8e bd 8f 72 85 be
       -0.32628107 0.005696211 -0.069421075 -0.26063964
000070 b5 92 68 be 6a 6b b5 3b 38 ed 31 be 42 87 85 be
       -0.22712214 0.0055364864 -0.17375648 -0.26079756
000080 56 6a 5e 3c 37 7f c2 bf d1 3d 04 be e6 59 2f be
       0.013575157 -1.5195073 -0.12914206 -0.17124137
000090 6a 22 8d bf 59 a4 71 be e4 79 05 be 78 c2 a3 be
       -1.1026127 -0.2359785 -0.13034779 -0.31984305
0000a0 11 83 3f be 08 24 11 be 7d 2a a9 be 4d 4b 24 3c
       -0.18702342 -0.14173901 -0.33040228 0.010027719
0000b0 4a 2f 52 bd a4 02 aa be 9e 47 a8 be a2 cd 24 be
       -0.05131463 -0.3320514 -0.3286714 -0.16094068
0000c0 8f f6 9d 3e 39 3d e6 bc 79 6e 4e bd d3 d0 8c bc
       0.30852172 -0.028105365 -0.050398324 -0.017189419
0000d0 44 02 fd bd 87 be 23 be c4 88 0f be f3 97 59 3d
       -0.12353948 -0.15990649 -0.14017016 0.053123426
0000e0 35 1a 4b bd 90 78 9a c1 9b d4 98 bf f8 05 3e bf
       -0.04958554 -19.308868 -1.1939882 -0.7422786
0000f0 8a fa 20 be af 1c 5b bd f5 0c a5 bd c1 59 e6 bf
       -0.15720573 -0.05349415 -0.08059112 -1.7996141
000100 c6 ed 5b 3d ba 47 bf be f3 81 ac bd f6 f9 c8 be
       0.053693555 -0.3735941 -0.08423223 -0.39253205
000110 a5 8d 5e bd 91 00 df bd 74 79 28 3e df 35 f5 3d
       -0.0543343 -0.1088878 0.1645258 0.11973166
000120 d6 09 ed be ee 95 66 c1 ec d8 6b bf 50 52 70 be
       -0.46296567 -14.411604 -0.9212787 -0.234689
000130 65 42 16 c0 57 b7 0b 3d d3 5a f0 bd 53 d8 01 be
       -2.3478024 0.034110393 -0.11736073 -0.12680177
000140 ac 58 66 3d 4d ac 8b be 8a ee df 3c c2 77 02 3e
       0.056236908 -0.27279893 0.027335424 0.12740996
000150 42 e0 56 bd e0 fb 61 bd 10 9a ff be 5f 99 28 bc
       -0.052459963 -0.055171847 -0.49922228 -0.010290473
000160 c9 6a c8 bd 31 b9 2c be 9c 49 bf be bc 58 b9 bf
       -0.09785993 -0.1686752 -0.37360847 -1.4480205
000170 f3 17 50 3d a4 c2 3f 3d 79 64 45 be 49 f1 06 bb
       0.05080409 0.046816483 -0.19276609 -0.0020590595
000180 ae 90 f6 bd 43 ef b8 bd 9d 9f 8f 3e 7e 1e a7 be
       -0.12039314 -0.090300106 0.28051463 -0.3264045
000190 da 9b 0d be ef d2 55 be ee a5 9a be 42 37 bd be
       -0.13828984 -0.20881246 -0.3020472 -0.3695622
0001a0 70 56 f8 bc d2 cc 14 c0 17 83 dd be 1d d3 f0 bc
       -0.030314654 -2.3250012 -0.43264076 -0.029397542
0001b0 83 8b 90 bd 32 a7 e1 be 08 59 14 3b 2f 4a 1e be
       -0.0705786 -0.44072872 0.0022636075 -0.15457986
0001c0 5e 99 96 3c aa 5e 13 be f2 48 46 be a9 79 1a be
       0.018383678 -0.1439158 -0.19363764 -0.15085472
0001d0 14 19 00 c0 39 4e 3c bf c4 74 44 be 49 1f ce 3c
       -2.0015306 -0.7355686 -0.19185168 0.025161402
0001e0 72 18 93 be cb b3 b6 bb eb 5f 00 be d7 5d 3e bd
       -0.28729588 -0.005575632 -0.1253659 -0.04647621
0001f0 38 e4 07 c1 ac c9 77 bd b3 09 b6 bd 83 11 6d bf
       -8.493217 -0.060495064 -0.08888569 -0.92604846
000200 f6 37 cb bd dd 7b dd 3d 90 ac 06 bf 3f 6e 5b bd
       -0.09922783 0.10814641 -0.5260706 -0.053571936
000210 81 78 45 bf 67 aa 3f bd 46 eb b0 bd 61 fb 7b 3d
       -0.77137 -0.046793368 -0.08638625 0.06151903
000220 26 b3 62 be 08 72 c8 be 54 27 c2 bc ef 98 00 3f
       -0.22138652 -0.391495 -0.023700394 0.5023336
000230 2e c7 34 be f6 bc dd bd d1 e1 12 3a 09 ca ba be
       -0.17654106 -0.10827057 0.0005603107 -0.36482266
000240 92 d6 df bc 90 ae 42 be 2b 00 09 3c 95 8c 13 3d
       -0.027323995 -0.19011903 0.008361856 0.03602274
000250 e4 f7 64 bb 52 f1 74 3d f5 47 da bc 40 a5 24 be
       -0.0034937793 0.059800453 -0.02664564 -0.16078663
000260 fd 01 b5 be 64 e1 82 ba 8e ca 4e 3b e6 66 3f bf
       -0.3535308 -0.0009985385 0.0031553837 -0.74766386
000270 87 ad 4d be fe 14 13 3d e4 15 ca bd 2f d2 37 be
       -0.20085727 0.03590869 -0.098674566 -0.17951272
000280 ac 8a 68 3d 3d 90 88 c0 84 6d e1 bc eb 83 fa bd
       0.056772873 -4.267607 -0.027518041 -0.122321926
000290 85 75 88 c0 81 45 6c be 31 cd a9 bd 74 1f 7a be
       -4.2643456 -0.23073389 -0.0829109 -0.24426061
0002a0 92 73 16 be 48 b7 be bd 92 4e 9f be 19 89 23 3d
       -0.14692524 -0.09312302 -0.31114632 0.03992567
0002b0 e1 53 bb bd 66 65 bb be ae 69 47 be e1 6c 02 be
       -0.09146858 -0.36600798 -0.19473907 -0.12736847
0002c0 40 dc cf bf ac a4 11 3e 8c a3 99 3c 49 c9 96 3d
       -1.623909 0.14222974 0.018754743 0.07362611
0002d0 7c de 30 be 85 f1 0b be 41 cb a4 bd 0c b0 84 bd
       -0.17272371 -0.13666351 -0.0804658 -0.06478891
0002e0 b7 66 1b 3d cc 05 1c c1 a3 72 9a c0 df 11 ea be
       0.037939753 -9.751415 -4.8264937 -0.4571676
0002f0 a0 6a d6 bd 08 1e 3d 3c 8a 80 a2 bd 70 68 b8 bf
       -0.10469556 0.011542805 -0.07934673 -1.4406872
000300 45 f7 0a 3d df 95 a0 be 46 c3 84 bb 09 40 5f be
       0.03392722 -0.31364343 -0.0040515987 -0.21801771
000310 9e e1 c0 bd 17 ca 64 bd 4e 97 23 3e bf 1a 2d 3e
       -0.09418033 -0.05585679 0.15975687 0.16904734
000320 ea fe 9e bf da 92 10 c0 6b 2e 80 bf 59 4e 17 be
       -1.2421544 -2.258963 -1.0014166 -0.14775981
000330 e6 f6 45 c0 7a 81 85 3d 30 c5 49 bd fb 92 be bd
       -3.0931945 0.06518836 -0.04926032 -0.09305378
000340 e2 57 4a be 17 d8 31 be d8 9c 34 bc 67 50 c5 3d
       -0.19760087 -0.17367588 -0.011023723 0.09634476
000350 1d 1f 5f 3a 0d a8 16 3d ac d3 83 be 48 9b ee 3c
       0.0008511411 0.03678136 -0.2574743 0.029126778
000360 b2 8c 15 bd 50 20 d2 39 a8 07 5f be 3b 64 5d c0
       -0.03651113 0.00040078396 -0.21780264 -3.4592426
000370 c1 92 bc 3d f9 27 23 3e 23 3c fe bd 15 67 57 be
       0.092076786 0.15933217 -0.12413814 -0.21035416
000380 52 42 b0 bd b5 d9 13 bb 6e 34 0b be 98 5c 3d be
       -0.086063996 -0.0022560183 -0.13594219 -0.18492353
000390 7a fe a0 bd bd fb 5d be 9e d7 a7 be 16 7b 48 bf
       -0.078610376 -0.21678062 -0.3278169 -0.78312814
0003a0 82 d3 88 3d 8a 47 03 c1 b5 e6 e9 be 78 ff f0 bc
       0.06680967 -8.204966 -0.45683828 -0.029418692
0003b0 f8 88 28 3d f9 85 8a be 05 44 c3 3c 04 3f 5d be
       0.04114625 -0.27055338 0.023836145 -0.2160607
0003c0 fd f7 52 bd 3c 28 c9 bd c4 68 c8 bc 70 37 dd bd
       -0.05150603 -0.09822127 -0.024464019 -0.108015895
0003d0 a4 bc d5 c0 24 f8 0b bf cb 7c ce bd 6c 3f 2c 3e
       -6.6792774 -0.5467551 -0.10082396 0.16821069
0003e0 4e aa 62 be c8 59 84 3d 72 fe 74 bd 7e f0 c0 bc
       -0.22135279 0.06462437 -0.05981297 -0.023552176
0003f0 0c 8e be bf c2 ed 4a bd 55 26 91 bd 33 35 54 bf
       -1.4887099 -0.04954315 -0.070873894 -0.82893676
